…
[*********************100%%**********************]  1 of 1 completed

[*********************100%%**********************]  1 of 1 completed

[*********************100%%**********************]  1 of 1 completed

[*********************100%%**********************]  1 of 1 completed
Do you want to plot the model performance metrics?[y/n]
./eurozone/AAPL.csv
<Policy "mixed_float16">
Model: "sequential"
_________________________________________________________________
 Layer (type)                Output Shape              Param #   
=================================================================
 lstm (LSTM)                 (None, 1, 512)            1073152   
                                                                 
 batch_normalization (BatchN  (None, 1, 512)           2048      
 ormalization)                                                   
                                                                 
 dropout (Dropout)           (None, 1, 512)            0         
                                                                 
 lstm_1 (LSTM)               (None, 1, 256)            787456    
                                                                 
 batch_normalization_1 (Batc  (None, 1, 256)           1024      
 hNormalization)                                                 
                                                                 
 dropout_1 (Dropout)         (None, 1, 256)            0         
                                                                 
 lstm_2 (LSTM)               (None, 1, 128)            197120    
                                                                 
 batch_normalization_2 (Batc  (None, 1, 128)           512       
 hNormalization)                                                 
                                                                 
 dense (Dense)               (None, 1, 1)              129       
                                                                 
=================================================================
Total params: 2,061,441
Trainable params: 2,059,649
Non-trainable params: 1,792
_________________________________________________________________
Epoch 1/100

  1/166 [..............................] - ETA: 21:08 - loss: 0.9244 - accuracy: 0.4531
  3/166 [..............................] - ETA: 4s - loss: 0.9350 - accuracy: 0.4375   
…
